CALCULATOR/Trained models/arsinh_model.pth (torch, 20154 bytes, 5 tensors)

model.0.weight f4 [64, 1]
000000 be 2a 33 3f 8b fd ee 3e b1 f5 ee 3e a5 8c 08 bf
       0.69987094 0.46677813 0.46671823 -0.53339607
000010 10 42 58 3e 81 65 c8 3c 6b 88 2d 3f 46 da 23 bf
       0.21118951 0.024462463 0.6778628 -0.64004934
000020 bf 26 77 bf 9f a3 d0 bd a3 20 f6 be 57 72 0f bf
       -0.96543497 -0.10187458 -0.48071775 -0.56033844
000030 0f 9e 12 bf 12 0b 24 bb 3b 81 57 3f a8 ec 46 be
       -0.5727243 -0.0025031012 0.84181565 -0.19426215
000040 11 1e e6 be bd 29 c9 be 02 c4 2c 3f 97 62 31 bf
       -0.44944814 -0.39289656 0.67486584 -0.6929106
000050 d0 47 ee b9 ee 7f 21 bf c4 c7 c9 3c ab e0 24 be
       -0.00045448402 -0.6308583 0.024631388 -0.16101329
000060 f4 3c 16 3e a0 10 3d be 93 fa 64 3f 64 05 e5 be
       0.1467169 -0.18463373 0.89444846 -0.44730675
000070 0b 57 0b 3f cb 89 f4 be d3 f1 07 3f b4 5b 1e 3f
       0.5442969 -0.47761378 0.5310337 0.6185868
000080 d0 52 1b 3e 82 62 39 bf ed 58 e1 be 49 6f a0 3d
       0.15168309 -0.72415936 -0.44013157 0.07833726
000090 09 07 9a 3e bc 0e 22 3f f6 7e 3c bf 89 69 b0 bd
       0.30083492 0.6330373 -0.73631227 -0.08613879
0000a0 b8 9d 81 be 2d 24 a4 be db b3 53 3f e6 48 5b bf
       -0.25315642 -0.3205885 0.8269631 -0.8565811
0000b0 e4 04 2f bf f6 d9 3e 3f 43 89 ba be 43 54 88 3e
       -0.6836684 0.7455133 -0.36432847 0.26626787
0000c0 b9 86 2a be 7d da e1 3e 2e 0a 14 3f 8a 44 c4 3e
       -0.16652955 0.44112006 0.5782803 0.3833354
0000d0 0b 1e 01 3c 65 ae 4f bf 14 67 0c 3f a3 30 5b 3f
       0.007880698 -0.8112548 0.54844785 0.8562109
0000e0 a3 05 75 39 22 9b 00 bf 42 7e d1 3e 67 a5 c1 be
       0.0002336712 -0.50236714 0.4091664 -0.37821504
0000f0 b5 00 2f bb d5 a5 ef 3e d7 c6 9e 3e 9a 44 96 be
       -0.0026703302 0.46806207 0.31011078 -0.29349214

model.0.bias f4 [64]
000000 0b 7a 26 3f cf 9b 70 3f b1 cb 85 be 2f b4 48 3d
       0.6502997 0.93987745 -0.26131967 0.04899996
000010 ee 4c 8a bf 31 ab 00 3f fa 9d 85 be 8f 1d 6b bf
       -1.0804727 0.5026122 -0.2609709 -0.9184198
000020 8a 6c 65 3e 55 73 e4 bd 34 3b 4a 3e 4d f4 7a 3f
       0.22404686 -0.1115481 0.19749147 0.98029023
000030 b5 04 1d bf 99 97 48 3f 80 6f 00 bf 7f e1 60 bf
       -0.6133531 0.7835632 -0.50170135 -0.8784408
000040 6e 19 82 be 87 84 17 bf 91 d3 2f be b8 93 3b 3f
       -0.25410026 -0.59186596 -0.1717055 0.73272276
000050 f6 9e ae 3f 41 f7 dd 3e 0d 4c 01 bf 54 72 82 bf
       1.3642261 0.43352702 -0.5050667 -1.019114
000060 e8 a9 31 3e 99 fc 67 bf 8d ea 56 bf 4b cd 6f 3f
       0.1734997 -0.9061981 -0.83951646 0.9367263
000070 7c c5 e7 be 8d be d0 3e 92 aa 28 3e cd 64 74 be
       -0.45267856 0.4077038 0.16471317 -0.23866577
000080 40 10 99 3e f4 36 82 bf a6 fc a0 bf d9 59 55 3f
       0.2989521 -1.017302 -1.2577102 0.8334022
000090 7b 46 3f bf bf fc 37 bf 0b 57 2f bf 27 68 16 3f
       -0.7471692 -0.71870035 -0.6849219 0.58752674
0000a0 0a d4 06 bf bd 64 a1 3f 00 38 9b bf 0a 0b ef be
       -0.52667296 1.2608868 -1.2126465 -0.4668811
0000b0 22 c4 8c 3f a7 84 9f bf d6 d4 11 3f 41 54 1b 3f
       1.0997355 -1.2462357 0.56965387 0.60675436
0000c0 64 ba 42 be 22 3c 74 3f 50 66 49 bf 78 dc 8b bf
       -0.19016415 0.95404255 -0.7867174 -1.0926657
0000d0 73 24 89 3f a8 6e 74 bf 21 f3 1f bf 25 78 26 bf
       1.0714248 -0.9548135 -0.6248036 -0.65027076
0000e0 4d 06 48 3f c1 5f 3e bf a2 19 b7 3e 27 e0 8d bd
       0.78134614 -0.7436486 0.35761744 -0.06927519
0000f0 de a0 e0 be ee 09 99 bf 31 11 61 bf aa c7 c6 bc
       -0.43872732 -1.1956155 -0.87916857 -0.02426513

model.2.weight f4 [64, 64]
000000 80 64 9f 3a 1e 42 c8 3d 3a 04 ad 3d 50 27 7a bd
       0.0012160689 0.09778236 0.08448072 -0.061072648
000010 60 d5 72 bc f8 aa b7 bd 1c 8b 99 bd 84 34 4b 3d
       -0.01482138 -0.089681566 -0.07497236 0.04961063
000020 88 05 86 3d a0 9f 02 bd c8 f2 de bc 50 a7 29 bc
       0.06544024 -0.03189051 -0.027215376 -0.010354832
000030 f2 a2 b2 3d 3a ed c7 bd da 73 8c 3d 10 f8 41 bd
       0.087224856 -0.09762044 0.068580344 -0.04735571
000040 aa 7c 9f 3d d6 5d db 3d 34 3e fb bd ec c7 01 bd
       0.0778745 0.10711257 -0.12267724 -0.0316848
000050 bc 59 54 bd 42 7d 80 bd b8 27 a9 3c 58 63 ac bd
       -0.05184339 -0.06273891 0.020648822 -0.08417386
000060 d8 bd 65 bd b2 70 ec bd 54 0f fd bd 90 63 e8 3d
       -0.056089252 -0.115449324 -0.12356439 0.11347115
000070 2a ba d8 bd b0 fd 44 bd 78 9e 8a bc 9c bc cc bd
       -0.10582383 -0.048093498 -0.016921267 -0.09996912
000080 e8 83 19 bd c8 64 1c 3d b0 e2 78 bc 98 20 a9 bd
       -0.03747931 0.03818205 -0.015190765 -0.0825817
000090 54 b5 3a bd 00 be ae bd e0 24 c6 3b d0 f1 05 bc
       -0.045583084 -0.085323334 0.0060468763 -0.008175328
0000a0 f6 e8 af bd 0a 78 cc 3d 8e 63 92 3d a0 ff f0 3b
       -0.08589356 0.09983833 0.07147895 0.0073546916
0000b0 48 21 c8 bc d0 84 2f 3d 18 3d b1 bd 46 dd f1 3d
       -0.024429932 0.04285127 -0.08654231 0.11809783
0000c0 00 bc 0e 3c 54 0f 13 3d bc 19 d5 bd 38 e2 96 bd
       0.008711815 0.03590329 -0.10405299 -0.073673666
0000d0 68 6f 43 3d be 44 c8 bd a2 d5 ea bd d0 bc 16 3c
       0.047713667 -0.097787365 -0.114665285 0.00920029
0000e0 64 be 28 bd 76 4c f4 bd 84 8c e4 bd ca 2a cf 3d
       -0.041197196 -0.11928646 -0.11159614 0.10115583
0000f0 ea 90 e9 3d 34 cb d7 bd 10 f1 ab bd 80 aa 4e bb
       0.11404593 -0.10536805 -0.083955884 -0.0031534731
000100 27 75 aa 3d 09 ef eb bd 24 5f aa bd 59 38 b0 bc
       0.08323126 -0.11520202 -0.08318928 -0.021511244
000110 98 45 ce bc ee 1a 8f bd 08 cb c8 bd ad 73 64 3d
       -0.02517967 -0.06987558 -0.0980435 0.05577438
000120 ba 57 ae 3d f8 80 8e bd 2b 71 8a 3d 3b 8f 28 3c
       0.08512826 -0.069581926 0.06759866 0.010288055
000130 ab 83 b1 bd 62 77 15 3d 60 73 56 bd fa 9f 07 be
       -0.08667692 0.036490805 -0.052356124 -0.1324462
000140 d0 8c d2 3d fe 49 8c bd 0e 0f bd 3d c5 7a b7 3d
       0.10280764 -0.068500504 0.09231387 0.08958963
000150 dd a5 16 3d 57 36 ff bb 58 a7 2d bd 10 04 9b bc
       0.036779273 -0.0077884602 -0.04239592 -0.018922836
000160 e0 51 41 bc b9 5a aa 3c d0 72 fa bc f4 8c 1e 3d
       -0.011799306 0.020795213 -0.030572325 0.038708642
000170 76 86 9a 3d bb 4b f3 bd 6a d2 9a 3d 02 96 f8 bd
       0.07545178 -0.11879679 0.075596645 -0.12137987
000180 b0 34 b4 bd 84 24 fc bd 04 26 a1 bd a9 1d 4e bd
       -0.08799112 -0.12311652 -0.07868579 -0.050321255
000190 38 ca 92 bd 8a 69 bd 3d 58 1e e4 bd 61 5d fd bd
       -0.071674764 0.092486456 -0.111386 -0.12371326
0001a0 ab 2d fc bd e9 a6 26 3b ec 32 d8 3d d4 fb c9 3d
       -0.12313398 0.0025429076 0.105565876 0.098624855
0001b0 28 e9 ca bd 9a 5b d4 bd 95 ad 0b be a4 bb c2 3d
       -0.09907752 -0.10369034 -0.13640435 0.09508446
0001c0 e1 b5 f2 bd 66 2d 41 bd ac 05 56 bd 18 b6 d4 bd
       -0.11851097 -0.047162436 -0.052251503 -0.10386294
0001d0 63 5f 56 bd bd dd f6 bc be a8 c1 3d 2a 67 9d bd
       -0.05233706 -0.03013503 0.09456013 -0.076856926
0001e0 9f 44 bd bd ae 60 e5 3b f8 93 85 3d 73 f6 52 bb
       -0.09241604 0.0070000505 0.065223634 -0.0032190352
0001f0 9e bb cd bd 06 29 a7 bd a0 20 81 3d ad e8 7b ba
       -0.10045551 -0.081621215 0.06305051 -0.00096095615
000200 83 60 70 bc 60 2d e0 bc d2 45 3b bd 0a a8 5b bb
       -0.014671448 -0.027365386 -0.045720883 -0.0033516907
000210 2a 56 c7 bc 4f 1b 4e be 11 b9 25 bd 31 00 8c 3d
       -0.024333078 -0.20127605 -0.040459696 0.06835974
000220 6f e6 0c 3d f8 75 a4 bd 3f 11 fb bc ea ff 06 3e
       0.034399446 -0.08030313 -0.030647872 0.13183561
000230 08 04 da bd fb 17 2e 3e 66 94 70 39 1c 2f bf bd
       -0.106453 0.17001335 0.00022943466 -0.09335157
000240 a9 d9 e4 3c 44 0c cd bd f8 33 19 3d d8 7a c1 bc
       0.02793582 -0.10012105 0.037403077 -0.023618147
000250 7c 58 33 3e 9a ac c0 3d 68 73 32 3e 9b 5c f0 bc
       0.17514223 0.09407921 0.17426836 -0.029341033
000260 a8 32 8b 3d 25 19 14 bc fb b8 79 3d 8a 3d 2a bb
       0.06796771 -0.009039198 0.060967427 -0.0025976622
000270 bf 71 40 bd c4 04 c5 bc ef cb dc 3d 00 8f 3f bd
       -0.046983477 -0.024050124 0.10781085 -0.046767235
000280 90 e6 cc 3d a0 63 5b 3c f2 0a ac bd 14 2f 47 3d
       0.10004914 0.013390452 -0.08400525 0.04862888
000290 20 40 b2 3d 67 19 d2 bd e4 3c fe bc 61 eb 2b 3e
       0.08703637 -0.10258751 -0.031034894 0.16789009
0002a0 da 31 c1 bc 5a 66 35 3e 60 ce d8 3d b7 65 a1 bd
       -0.023583341 0.17714825 0.10586238 -0.07880729
0002b0 b2 c1 f3 3d 6b 16 df bc e0 4e 2c 3e 61 c9 9e 3d
       0.11902179 -0.02723237 0.16826963 0.07753254
0002c0 12 04 3c bd 0f 48 dd bd a2 cc 3d bd 92 9b a0 3d
       -0.04590232 -0.1080476 -0.04633773 0.07842173
0002d0 f0 54 28 3e 2f 65 de bd 95 7b 80 b6 db b3 db bc
       0.16438651 -0.10859143 -3.829084e-06 -0.02681916
0002e0 cb a4 8b 3d aa 5a aa bd 3a 84 cc bd 17 75 b2 bd
       0.06818541 -0.08318074 -0.09986158 -0.08713739
0002f0 37 7c f2 bc b7 1e da 3d 44 7f 8f 3d b2 95 95 3d
       -0.029600246 0.1065039 0.07006696 0.07303943
000300 64 44 ed 3d 90 32 28 bd b2 d8 d6 bd 7b e1 75 be
       0.1158531 -0.041063845 -0.1049055 -0.24011795
000310 ad 43 c2 bd ca 09 a3 3e 87 27 ca 3d 82 53 bd bc
       -0.094855644 0.31843406 0.098708205 -0.023111109
000320 bf 16 17 be 42 07 2d bd e6 35 36 be 41 5d e0 3d
       -0.1475477 -0.04224325 -0.17793998 0.10955287
000330 16 12 49 bc b2 d1 a8 3e 4d 2f d1 bd 28 84 9d bc
       -0.012272378 0.32972485 -0.102141 -0.019228056
000340 a9 c4 59 3d 02 05 a6 bd 7c b1 56 3d 2f db 07 bd
       0.053166065 -0.08106424 0.052415356 -0.033168014
000350 29 3b 47 3e c8 64 10 be f0 ba 61 bc a3 42 cc bd
       0.19456162 -0.14100945 -0.0137774795 -0.099736474
000360 67 29 93 3d c5 24 48 3d 8a 0a ca bd 72 01 8b 3e
       0.07185631 0.04886319 -0.098652914 0.2714954
000370 ab ab 93 3d c3 14 75 bd 1d e3 cf 3d ab a8 c1 3d
       0.072104774 -0.059834253 0.1015074 0.09455999
000380 7a 9d e8 bd 1c 83 8d bd 4c aa d2 bb 26 a5 1b 3d
       -0.11358161 -0.06909773 -0.0064289924 0.037999295
000390 0d 1d b9 3d 40 a1 11 bd 44 fa 0f 3e 0a 05 8b 3e
       0.09038744 -0.03555417 0.14060313 0.27152282
0003a0 d7 6a 53 3e 69 cb 1b 3e ad 86 e2 3c 05 79 5d 3d
       0.20646225 0.15214314 0.027652109 0.05407049
0003b0 09 04 27 3d d8 75 c0 bd 13 5f 25 3d 2b e9 4c 3b
       0.040775333 -0.09397477 0.040373873 0.0031266909
0003c0 87 01 0a be d1 fa f1 3d 41 1f 43 3d e6 ac 7a 3d
       -0.13477145 0.118154176 0.047637228 0.061200045
0003d0 16 51 65 3e 3e 0a 5f 3b 47 f3 00 bd cf 51 1e 3d
       0.22394213 0.0034033204 -0.031482007 0.038652238
0003e0 7f 03 20 3d 43 1a 18 bd 45 3a c9 bd bf cf 68 bd
       0.039065834 -0.03713442 -0.09825567 -0.056838747
0003f0 a0 9e c3 bd a0 65 da bd 2f 7b 6d bd 7e 43 0c be
       -0.0955174 -0.10663915 -0.057978805 -0.13697621

model.2.bias f4 [64]
000000 ea 64 b1 bd 70 07 13 3d fd 83 83 3b 54 c1 6b 3e
       -0.08661826 0.035895765 0.004013537 0.23022968
000010 74 3e c8 bd fa 39 53 bd 0e d3 c5 bd 73 92 0b 3e
       -0.09777537 -0.051568963 -0.09659396 0.13630085
000020 a2 d0 43 3e fb 95 ea 3c 6e ca 31 3b 1c 05 02 bd
       0.19122556 0.02863597 0.0027128714 -0.031743154
000030 d0 c8 41 be 8d 90 68 bd 74 de a8 be 46 4a e2 bd
       -0.1892426 -0.05677848 -0.32982218 -0.11049323
000040 4e 33 c7 bd f9 b0 cd 3d e5 b2 a2 3d 3f 3a 1a 3e
       -0.097265825 0.100435205 0.07944278 0.15061282
000050 d9 94 70 3d a8 bc da 3c c5 12 5b 3c eb 8a bb bd
       0.058735702 0.026701286 0.013371174 -0.09157356
000060 0f 56 87 bd cc ce 5d 3d 9e 19 47 3b dd ff 5d bc
       -0.06608211 0.054152295 0.003038026 -0.013549772
000070 a7 02 9e bd d6 ff 96 3d cc 82 42 3d d2 39 bc 3c
       -0.0771535 0.073730156 0.04748802 0.02297679
000080 ee d9 56 3e 85 62 45 3e 64 3e 38 be 94 c0 0e be
       0.20981571 0.19275863 -0.1799255 -0.1394065
000090 1e f1 92 bd 4c b5 18 3d ac ea ab 3e a9 a7 84 3e
       -0.07174896 0.037282273 0.33577478 0.25909165
0000a0 48 59 d7 3c 56 52 ad bd 4f 49 aa 3d ae 2c 6a 3d
       0.02628769 -0.0846297 0.08314764 0.057171516
0000b0 40 3b 44 3e f1 2f 66 3e d2 6d 4c 3e 8d 26 f9 bd
       0.19163227 0.22479226 0.19963768 -0.12165556
0000c0 df 44 21 3d 42 01 27 be 1d e3 99 3d 88 ec a6 bd
       0.03937232 -0.16309074 0.075140215 -0.081505835
0000d0 c6 52 a8 3d 41 d7 02 be 24 dc 11 3f cb 3d a9 3e
       0.08218913 -0.12777425 0.5697653 0.33054957
0000e0 df d8 37 be 86 78 d6 3e 47 c9 3a 3e 75 43 28 be
       -0.17953824 0.41888827 0.18240844 -0.16431983
0000f0 5e c1 b3 3d e5 1b 0b bc 30 06 88 bc 30 d1 82 3e
       0.08777116 -0.008490537 -0.016604513 0.25550222

model.4.weight f4 [1, 64]
000000 8c 24 03 bd f8 c5 96 3d de 26 32 be 4a 43 1a 3e
       -0.032017276 0.07361978 -0.17397639 0.15064731
000010 ad db 79 3d 80 db a9 3d de 5f 92 3d 78 f1 de bd
       0.061000515 0.082938194 0.071471915 -0.108859
000020 c6 ea d8 bd 6c b1 b4 bd c8 88 e0 bd bd a9 98 3d
       -0.105916545 -0.08822903 -0.10963589 0.0745425
000030 45 df 87 bd 69 86 54 39 12 ff ae bc 40 0a 5d 3d
       -0.06634382 0.00020267967 -0.021361861 0.053964853
000040 7f de 45 3c b1 5a b3 3d 66 bc c3 bd a9 49 50 3c
       0.012076973 0.087575324 -0.095574185 0.012712874
000050 05 f5 f6 3d 88 12 83 bc 21 c9 e3 bd 52 46 dd bd
       0.120584525 -0.016000047 -0.11122347 -0.10804428
000060 b1 af b3 3d 20 b5 58 bc 67 ff 65 bd f5 b0 a8 3d
       0.08773745 -0.013226777 -0.056151774 0.08236877
000070 ce 83 03 be 3e c0 fd 3d 77 69 c7 bd 76 66 b2 3d
       -0.12843248 0.12390183 -0.09736913 0.08710949
000080 28 99 dd 3d a0 5c e8 3d fc 33 45 3c 13 ce a1 3d
       0.10820228 0.11345792 0.01203632 0.07900634
000090 73 57 09 3d 60 66 11 bd 26 41 b0 3e 9d da 5e bc
       0.033530664 -0.035498023 0.34424704 -0.013601926
0000a0 4a 60 d6 3d 63 77 c5 3d e9 60 b9 bd 9f 6b b9 3d
       0.104675844 0.09641912 -0.09051687 0.0905373
0000b0 9d 49 7a bd f9 2c 61 be c8 a4 ff bd 64 fa 70 bd
       -0.06110536 -0.21989812 -0.124826014 -0.05883254
0000c0 56 8a 18 bd 14 f9 1c bd 5b 27 61 3d 85 4e fa bb
       -0.037241302 -0.038323477 0.054969173 -0.007638755
0000d0 cd 0a 3b 3d 87 12 9e 3d 03 08 9c be 4f 7d 09 3e
       0.045664597 0.077183776 -0.30474862 0.13426708
0000e0 56 da 6c 3c 49 2f e2 3e c6 75 15 3d 5f 82 03 3d
       0.014456352 0.441767 0.03648927 0.032106753
0000f0 78 3f 0e bd d1 30 2d 3d 04 19 9e 3d 70 e3 07 3d
       -0.034728497 0.042282883 0.07719615 0.033175886
